blog/documents/iris-model.onnx (onnx, 885 bytes, 2 tensors)

transform_matrix f4 [4, 4]
0	0x3eb907aa	0.3613866
1	0x3f281634	0.6565888
2	0xbf14ffe9	-0.5820299
3	0xbea1878a	-0.3154872
4	0xbdad1a24	-0.084522516
5	0x3f3aebdc	0.7301614
6	0x3f1910af	0.5979108
7	0x3ea3b2bf	0.3197231
8	0x3f5b4ec4	0.8566706
9	0xbe31889a	-0.17337266
10	0x3d9c21a9	0.07623608
11	0x3ef5ad75	0.479839
12	0x3eb771af	0.3582892
13	0xbd9a95cb	-0.07548102
14	0x3f0bbb9c	0.54583144
15	0xbf40efb1	-0.7536574

mean f4 [4]
0	0x40bafc96	5.8433332
1	0x4043ab59	3.0573332
2	0x40708312	3.758
3	0x3f9983c1	1.1993333
